…
2020-07-28 23:40:38.385948: I tensorflow/core/common_runtime/gpu/gpu_device.cc:1115] Created TensorFlow device (/job:localhost/replica:0/task:0/device:GPU:0 with 10311 MB memory) -> physical GPU (device: 0, name: GeForce RTX 2080 Ti, pci bus id: 0000:b6:00.0, compute capability: 7.5)
2020-07-28 23:40:40.006982: I tensorflow/stream_executor/dso_loader.cc:152] successfully opened CUDA library libcublas.so.10.0 locally
_________________________________________________________________
Layer (type)                 Output Shape              Param #   
=================================================================
input_1 (InputLayer)         (32, 80000, 1)            0         
_________________________________________________________________
conv1d (Conv1D)              (32, 80000, 8)            48        
_________________________________________________________________
activation (Activation)      (32, 80000, 8)            0         
_________________________________________________________________
max_pooling1d (MaxPooling1D) (32, 16000, 8)            0         
_________________________________________________________________
batch_normalization_v1 (Batc (32, 16000, 8)            32        
_________________________________________________________________
conv1d_1 (Conv1D)            (32, 16000, 16)           272       
_________________________________________________________________
activation_1 (Activation)    (32, 16000, 16)           0         
_________________________________________________________________
max_pooling1d_1 (MaxPooling1 (32, 8000, 16)            0         
_________________________________________________________________
batch_normalization_v1_1 (Ba (32, 8000, 16)            64        
_________________________________________________________________
conv1d_2 (Conv1D)            (32, 8000, 32)            1056      
_________________________________________________________________
activation_2 (Activation)    (32, 8000, 32)            0         
_________________________________________________________________
max_pooling1d_2 (MaxPooling1 (32, 4000, 32)            0         
_________________________________________________________________
batch_normalization_v1_2 (Ba (32, 4000, 32)            128       
_________________________________________________________________
conv1d_3 (Conv1D)            (32, 4000, 64)            4160      
_________________________________________________________________
activation_3 (Activation)    (32, 4000, 64)            0         
_________________________________________________________________
max_pooling1d_3 (MaxPooling1 (32, 2000, 64)            0         
_________________________________________________________________
batch_normalization_v1_3 (Ba (32, 2000, 64)            256       
_________________________________________________________________
conv1d_4 (Conv1D)            (32, 2000, 128)           16512     
_________________________________________________________________
activation_4 (Activation)    (32, 2000, 128)           0         
_________________________________________________________________
max_pooling1d_4 (MaxPooling1 (32, 1000, 128)           0         
_________________________________________________________________
batch_normalization_v1_4 (Ba (32, 1000, 128)           512       
_________________________________________________________________
conv1d_5 (Conv1D)            (32, 1000, 128)           32896     
_________________________________________________________________
activation_5 (Activation)    (32, 1000, 128)           0         
_________________________________________________________________
max_pooling1d_5 (MaxPooling1 (32, 500, 128)            0         
_________________________________________________________________
dense (Dense)                (32, 500, 1)              129       
=================================================================
Total params: 56,065
Trainable params: 55,569
Non-trainable params: 496
_________________________________________________________________
Epoch 1/100
  1/100 [..............................] - ETA: 3:10 - loss: 0.4998 - acc: 0.8718  3/100 [...
…
