…
2020-08-12 05:10:22.523408: E tensorflow/core/profiler/internal/gpu/cupti_tracer.cc:1447] function cupti_interface_->ActivityRegisterCallbacks( AllocCuptiActivityBuffer, FreeCuptiActivityBuffer)failed with error CUPTI_ERROR_NOT_INITIALIZED
Model: "conv_model_1D"
_________________________________________________________________
Layer (type)                 Output Shape              Param #   
=================================================================
input_1 (InputLayer)         [(32, 80000, 1)]          0         
_________________________________________________________________
conv1d (Conv1D)              (32, 80000, 32)           192       
_________________________________________________________________
activation (Activation)      (32, 80000, 32)           0         
_________________________________________________________________
max_pooling1d (MaxPooling1D) (32, 16000, 32)           0         
_________________________________________________________________
conv1d_1 (Conv1D)            (32, 16000, 64)           10304     
_________________________________________________________________
batch_normalization (BatchNo (32, 16000, 64)           256       
_________________________________________________________________
activation_1 (Activation)    (32, 16000, 64)           0         
_________________________________________________________________
conv1d_2 (Conv1D)            (32, 16000, 64)           20544     
_________________________________________________________________
activation_2 (Activation)    (32, 16000, 64)           0         
_________________________________________________________________
max_pooling1d_1 (MaxPooling1 (32, 8000, 64)            0         
_________________________________________________________________
conv1d_3 (Conv1D)            (32, 8000, 128)           41088     
_________________________________________________________________
batch_normalization_1 (Batch (32, 8000, 128)           512       
_________________________________________________________________
activation_3 (Activation)    (32, 8000, 128)           0         
_________________________________________________________________
conv1d_4 (Conv1D)            (32, 8000, 128)           82048     
_________________________________________________________________
activation_4 (Activation)    (32, 8000, 128)           0         
_________________________________________________________________
max_pooling1d_2 (MaxPooling1 (32, 4000, 128)           0         
_________________________________________________________________
conv1d_5 (Conv1D)            (32, 4000, 256)           164096    
_________________________________________________________________
batch_normalization_2 (Batch (32, 4000, 256)           1024      
_________________________________________________________________
activation_5 (Activation)    (32, 4000, 256)           0         
_________________________________________________________________
conv1d_6 (Conv1D)            (32, 4000, 256)           327936    
_________________________________________________________________
activation_6 (Activation)    (32, 4000, 256)           0         
_________________________________________________________________
max_pooling1d_3 (MaxPooling1 (32, 2000, 256)           0         
_________________________________________________________________
conv1d_7 (Conv1D)            (32, 2000, 512)           655872    
_________________________________________________________________
batch_normalization_3 (Batch (32, 2000, 512)           2048      
_________________________________________________________________
activation_7 (Activation)    (32, 2000, 512)           0         
_________________________________________________________________
conv1d_8 (Conv1D)            (32, 2000, 512)           1311232   
_________________________________________________________________
activation_8 (Activation)    (32, 2000, 512)           0         
_________________________________________________________________
max_pooling1d_4 (MaxPooling1 (32, 1000, 512)           0         
_________________________________________________________________
conv1d_9 (Conv1D)            (32, 1000, 512)           1311232   
_________________________________________________________________
batch_normalization_4 (Batch (32, 1000, 512)           2048      
_________________________________________________________________
activation_9 (Activation)    (32, 1000, 512)           0         
_________________________________________________________________
max_pooling1d_5 (MaxPooling1 (32, 500, 512)            0         
_________________________________________________________________
dropout (Dropout)            (32, 500, 512)            0         
_________________________________________________________________
dense (Dense)                (32, 500, 1)              513       
=================================================================
Total params: 3,930,945
Trainable params: 3,928,001
Non-trainable params: 2,944
_________________________________________________________________
Epoch 1/2500
could not get file: ../data/wav_dur_16khz_southafrica/wav_southafrica_2015-08-18-13-00-12-TDRS-013-WJ_45.wav
 1/50 [..............................] - ETA: 0s - loss: 
…
